sleep_Convolution.pt (torch_old, 24698 bytes, 6 tensors)

conv1.weight f4 [10, 1, 5, 5]
000000 3e 08 ab 3d 77 78 28 bd 65 1f d6 3c 5d fa 6c 3c
       0.083511814 -0.04113051 0.026138017 0.014463988
000010 27 e3 b8 3c 46 43 3f 3e 30 8e b1 3d 05 11 b3 bd
       0.022569252 0.18678007 0.08669698 -0.087434806
000020 a6 3f 83 be 56 80 fd bd 74 d8 93 3d e3 ff 42 be
       -0.25634497 -0.12377994 0.072190195 -0.19042926
000030 9b 73 7a be 39 fd 89 be 08 4d 29 be dd 0f d2 3c
       -0.24458162 -0.26951006 -0.16533291 0.02564233
000040 0e 6b bf 3d d1 51 57 3c 15 d9 00 be eb 8a c7 bd
       0.09346591 0.013142065 -0.1258281 -0.097432934
000050 8b 31 07 bc d4 85 d8 bd b9 b6 b8 bd 16 ca f6 bd
       -0.008251558 -0.10572401 -0.090192266 -0.120502636
000060 b5 87 47 be e4 36 4b be bd c5 18 bd 65 09 83 3d
       -0.19485362 -0.19845158 -0.037297953 0.06398276
000070 d3 34 88 3e 33 0c 4a 3e 63 d3 5c be a3 a2 57 be
       0.26602802 0.19731216 -0.21565013 -0.21058135
000080 2e 13 87 3c c5 9a 29 3e 73 f9 97 3d 16 d1 c2 bb
       0.016488638 0.16562946 0.074206255 -0.005945335
000090 70 e1 3d be b5 d4 1f bd e6 47 81 3e 70 51 57 3e
       -0.18543029 -0.039021213 0.25250167 0.2102716
0000a0 da 3b 9c 3d a6 81 a8 bd c4 b8 2e 3c 98 64 54 3e
       0.07628603 -0.082278535 0.010664169 0.20741498
0000b0 17 dc 90 3d f6 99 f5 bd 40 ad 05 be 4b fa c8 bd
       0.07073229 -0.11992256 -0.13054371 -0.098133646
0000c0 b0 73 97 bd c5 8a 55 3d f0 a8 c7 bd 42 e4 3d be
       -0.073951125 0.052134294 -0.09749019 -0.18544105
0000d0 34 8d 86 bd c6 9a a5 3d 7f 2c 43 be 33 0d 23 be
       -0.06569901 0.08086161 -0.19059943 -0.15923004
0000e0 16 df cd 3d 88 c1 7e bd 75 d7 28 be 18 c3 4b bd
       0.10052316 -0.062196285 -0.1648844 -0.049746603
0000f0 34 44 1d bd 09 17 10 3e e2 e4 e6 3d a5 40 1c be
       -0.03839512 0.14071287 0.11274125 -0.15259035
000100 a9 29 22 3e 42 38 98 3d 9e 17 15 be a6 1d 01 be
       0.15836205 0.07432605 -0.1455979 -0.12608966
000110 82 78 82 3d 17 cc 07 3e e0 23 5c 3c 1a 02 ee bd
       0.06370641 0.13261448 0.013436288 -0.116214946
000120 07 78 05 3e 56 b1 13 be c2 35 f9 3d 57 c9 5e be
       0.13034068 -0.14423117 0.121684566 -0.21756493
000130 52 51 5e be 93 00 91 be e1 13 9d be 2f 4b 07 3d
       -0.21710709 -0.2832075 -0.3067923 0.033030685
000140 d3 15 c1 bd 77 21 61 bd da 9a e3 3d f3 61 b4 bd
       -0.09427991 -0.054963555 0.1111352 -0.08807745
000150 73 6d 5d bc b2 32 3e 3c d6 68 1b be f1 ae 31 be
       -0.013514864 0.011608766 -0.1517671 -0.17351891
000160 65 ad 0b 3d 39 47 e7 3d 83 8e 97 3e 5e 93 4d 3e
       0.03410091 0.112928815 0.29600915 0.20075747
000170 0a 17 8c 3d 2c 4d 60 3e 05 12 e9 bd 15 ec 84 3e
       0.06840332 0.21904439 -0.1138039 0.25961366
000180 27 0b 99 3d de b0 96 3e 27 04 11 3d da a1 a3 bd
       0.0747283 0.29431814 0.03540435 -0.07989855
000190 9d 97 96 bc eb a0 03 3e 6a 14 16 3c b0 bf c5 bd
       -0.018382842 0.12854354 0.0091601405 -0.09655702
0001a0 9d 51 7b be 6a 34 ec 3d f0 6d 11 3e e4 37 ba 3d
       -0.24542852 0.11533435 0.14202094 0.090926915
0001b0 15 46 1e be 40 66 e2 bd d6 a0 6f 3e 90 9a a8 bb
       -0.15456422 -0.11054659 0.23401198 -0.0051453784
0001c0 04 44 51 3e 48 33 76 3e 6c f4 e2 bd f8 81 ed bd
       0.20436102 0.24043 -0.11081776 -0.11597055
0001d0 03 ab e7 bc f8 d2 47 bd 26 b6 eb bc 39 c8 14 3e
       -0.028279787 -0.04878518 -0.028773379 0.14529504
0001e0 c7 3c 8c be 4e 35 34 be a0 dd dd bd c1 9a 37 bc
       -0.2739012 -0.17598459 -0.10833287 -0.01120633
0001f0 30 42 f4 3d 8d 17 4b 3e 49 82 44 bb 25 34 28 3e
       0.11926687 0.19833203 -0.0029984883 0.16426142
000200 99 f9 c2 bc 5f 22 75 be ac aa 50 3e 8c 72 68 3b
       -0.023800658 -0.23938893 0.20377606 0.0035468666
000210 70 41 3b be 97 5f be 3d 3a 71 e7 bd 0a 14 b2 3e
       -0.18286681 0.09295576 -0.11300893 0.34780914
000220 22 65 25 be b1 67 5b be c5 89 17 3d 4c 82 9d 3b
       -0.1615186 -0.21426274 0.03699662 0.0048067924
000230 0a 5f a4 3e c2 74 36 be 88 cd 2b be 07 fe 50 be
       0.3210376 -0.17817977 -0.16777623 -0.20409404
000240 4b 52 64 3c 76 84 a5 3e d3 7e 04 be 1a 82 a9 bc
       0.013935636 0.32327622 -0.12939005 -0.02069192
000250 16 21 37 be 5c b2 49 bd f4 69 87 3e 77 38 b9 3e
       -0.17883715 -0.049242362 0.26448023 0.36175892
000260 4b 9e 34 bd 7b 97 86 3e 0c 92 53 3e 09 28 2d be
       -0.044096272 0.26287445 0.20661181 -0.16909803
000270 9a 40 2c 3e f7 9f 3d be e4 91 2d 3e 13 fb 5c be
       0.16821519 -0.18518053 0.16950184 -0.21580152
000280 50 13 62 be 11 44 cc bd 6b 38 f4 bd 49 9b ca 3d
       -0.2207768 -0.0997392 -0.119248234 0.098928995
000290 0e 5f 2e bd 8b ec d8 bc 4d fd 58 be b6 70 7f be
       -0.04257112 -0.02647998 -0.21190377 -0.2494534
0002a0 23 30 a8 bd 0f eb 4e be f5 01 5e be ff cd 91 bd
       -0.08212306 -0.20206855 -0.21680434 -0.07119369
0002b0 3a 2f b2 bd f5 20 bb 3d d1 ce 54 3e ec e7 1a bd
       -0.08700414 0.091371454 0.20782019 -0.037818834
0002c0 06 0a 0d be e4 47 cd 3d 3a f4 b5 bd fb fb c9 bd
       -0.13773355 0.10023478 -0.08884473 -0.098625146
0002d0 df 94 1e be 84 87 f0 3d 81 98 b5 bd 17 30 ff 3d
       -0.15486477 0.117445976 -0.088669784 0.12460344
0002e0 69 59 32 3b 6d 94 2b 3e 0a 4f b7 3b 49 ab 72 3d
       0.0027213937 0.16755839 0.005594139 0.05924538
0002f0 82 cb 92 bd 13 d9 24 be 0f 31 02 be 14 c9 92 bd
       -0.07167722 -0.16098432 -0.12714027 -0.07167259
000300 e6 72 37 3e d9 73 4f be 71 8e 93 bd be 1f 14 bd
       0.17914924 -0.20259036 -0.07204903 -0.036163084
000310 8b ce 0a 3d 1b 43 f3 bd ea 66 f7 3c f5 ad a3 3d
       0.03388838 -0.11878034 0.03020044 0.07992164
000320 84 aa 9a bd 38 10 aa bd 61 e9 71 3e 73 55 e0 3d
       -0.075520545 -0.08303875 0.23624183 0.10953798
000330 d8 96 08 3e a7 93 0d bb 61 34 e7 3c c8 13 c2 bd
       0.13338792 -0.00216029 0.028223218 -0.09476429
000340 9d 92 38 3d 83 cb 19 bd bc 79 45 3e a8 fb 46 be
       0.045061696 -0.0375476 0.19284719 -0.19431937
000350 41 d8 18 be 65 96 07 3d c8 8d a9 3d 2b 7e 75 bd
       -0.14926244 0.03310241 0.08278996 -0.059934776
000360 68 c9 36 be 02 d2 5d bd f8 42 f1 bc 6a 7b 6f 3c
       -0.17850268 -0.054155357 -0.029450879 0.014616827
000370 60 a4 0d bd 02 df da bb 60 03 aa 3d df 1a 34 3e
       -0.03458059 -0.0066794166 0.08301425 0.17588376
000380 9a 28 40 3e 30 41 16 3d fd a8 e2 3c b5 be 38 3d
       0.18765488 0.03668326 0.02766847 0.045103747
000390 2d 21 1a 3e 8b e6 43 3e be 43 6e 3e b6 6e 0c bd
       0.15051718 0.19130914 0.23268029 -0.03428527
0003a0 3a 85 70 3e 8a a2 2a 3e d8 de 11 3e 20 7c 87 bd
       0.23488322 0.16663566 0.14245164 -0.06615472
0003b0 3b 51 95 3d 6c 88 42 bd 00 af 50 be d3 f5 26 3e
       0.07290884 -0.047493383 -0.20379257 0.16304712
0003c0 31 64 11 3e 63 15 45 be 21 50 47 be e4 aa 33 be
       0.14198376 -0.1924644 -0.1946416 -0.17545658
0003d0 17 a9 cc 3d 3a ae 5e be 1d 13 a3 be 83 c6 8a be
       0.09993189 -0.2174615 -0.3185052 -0.27104577
0003e0 aa da b1 bd 82 26 8d 3d
       -0.08684285 0.068921104

conv1.bias f4 [10]
000000 20 da a5 3e 1e 39 1a be 82 5a 47 be ca 33 b0 b7
       0.3239298 -0.15060851 -0.1946812 -2.1004951e-05
000010 52 4a 85 3c 90 8d 3f 3c 86 79 24 3e 09 ef 3f bd
       0.01627079 0.011691466 0.16061983 -0.04685882
000020 b2 43 f4 bd ac 5b a5 3b
       -0.11926974 0.0050463285

conv2.weight f4 [20, 10, 5, 5]
000000 ab f6 be bd f2 61 1e be 39 48 28 3b 13 e7 02 be
       -0.09324392 -0.1546705 0.0025677814 -0.1278346
000010 39 54 70 bd 1f 95 a5 bd f8 21 25 3d 86 5d f4 3c
       -0.05867407 -0.08085083 0.0403156 0.029829752
000020 94 0f 96 bd c6 1f 9e bd 19 76 fd 3c 20 e1 7f 3d
       -0.0732719 -0.07720904 0.030940102 0.062470555
000030 b2 c8 9a bc cd 7e f7 3c c6 d0 8f 3c 1d bd 10 3c
       -0.018894527 0.03021183 0.017555606 0.008834151
000040 7a 54 a9 3d 72 9b aa 3b 94 38 a8 3d cd 2e 22 3c
       0.08268066 0.005206519 0.082139164 0.0098988535
000050 1e a7 f4 bb 30 c5 ce 3d af 0e f5 3d b1 d2 81 3d
       -0.007466211 0.10096204 0.11965691 0.06339014
000060 29 3e d1 3d 7b 95 6f 3d ed 77 37 bc 1a ca 84 bc
       0.10216934 0.058492165 -0.011198026 -0.01620965
000070 24 94 35 3d 8a 69 93 bc ff e8 a1 3d 1b d2 37 bc
       0.04433073 -0.01799466 0.079057686 -0.011219527
000080 64 6d 27 3e b4 9e d8 3d 2e 2e 79 3d 6e 21 75 3d
       0.16350323 0.10577145 0.060835056 0.059846334
000090 98 af e4 3c 68 11 2a bc da d5 d7 3d 44 00 9e 3d
       0.02791576 -0.010380127 0.10538836 0.077148944
0000a0 f3 4c 3a 3e 65 33 95 3d 6f 11 e8 3c 2e 63 8c bd
       0.18193416 0.07285193 0.028328625 -0.068548545
0000b0 2e fd 29 3d c4 08 c5 3d 86 fa 0f 3d 0d 81 2a 3d
       0.041501217 0.096208125 0.035151027 0.04162698
0000c0 74 4f 20 bd dd 18 9d bd f0 a5 2d bd 40 05 7f bc
       -0.039138272 -0.07670758 -0.04239458 -0.015565217
0000d0 c6 87 53 3d d6 6a b4 bc 60 d3 ee bc 3c 10 1c 3d
       0.051643156 -0.0220236 -0.029153526 0.03810142
0000e0 a4 55 1d bc 51 2a 5c bd f0 d7 c3 3c 56 6c 25 bd
       -0.009602938 -0.053751294 0.023906678 -0.04038652
0000f0 14 89 71 3d 48 5f 7c 3d f8 c5 02 3c 44 b8 47 bc
       0.05896862 0.061614305 0.00798177 -0.012189928
000100 62 c0 1c 3d 3e 4a 71 3d f0 2c 3d 3c e0 45 d8 ba
       0.038269408 0.058908693 0.0115463585 -0.0016500317
000110 d0 f5 6a 3d b0 98 06 bb 68 ca f7 3c 00 ca 8e bc
       0.05736333 -0.0020537786 0.030247882 -0.017430305
000120 80 95 4d 3a b4 54 74 bc a5 0c 55 bd 23 4d 07 3e
       0.00078424066 -0.014912773 -0.052014012 0.13213019
000130 95 4e 5a 3e 82 19 04 3e 8a 59 bf 3e bc c7 ea 3e
       0.21319039 0.12900355 0.37373 0.4585551
000140 24 e1 5a 3e d6 ae 5b 3e 90 7f 88 3e 6f c7 5d 3e
       0.21374947 0.21453413 0.26659822 0.21658109
000150 c7 84 11 3e 12 43 f9 3d cf 0a df 3d 96 55 56 3e
       0.14210807 0.12170996 0.108907335 0.20931086
000160 6e ff 35 3e 02 17 c7 bc 20 17 32 3d 98 5b 1c 3e
       0.1777322 -0.024302963 0.043479085 0.15269315
000170 42 58 75 3c 13 57 d7 3d 98 40 9a 3d 32 11 3f 3e
       0.014974656 0.10514655 0.075318515 0.18658903
000180 32 d2 3d 3e 65 08 12 3e 94 f0 a5 3d c3 56 13 3e
       0.18537214 0.14261015 0.08102527 0.14388566
000190 ea 4a 2c bd b8 56 85 3d 18 81 1d 3e 6b 17 e9 3c
       -0.04206363 0.06510681 0.15381277 0.02845355
0001a0 25 6c 2d 3d 2e 08 c7 3d 48 6a 88 bd 8b 78 f6 bc
       0.042339463 0.09718357 -0.066608965 -0.030086776
0001b0 56 8e 67 3e ef ab 81 3e 28 fc 78 3e 0a 9d e9 3d
       0.2261289 0.25326487 0.2431494 0.11406906
0001c0 57 7e e4 3d 72 33 4e 3d 9a fd bd 3d 36 d1 6d 3e
       0.1115691 0.05034203 0.09276886 0.23224339
0001d0 73 37 d8 3d 77 72 2f 3e 4f db 28 3e 1c 21 aa 3d
       0.10557451 0.17133509 0.1648991 0.08307096
0001e0 9f fe c0 3e 2e dc 3a 3e 7b 15 e6 3d b0 b8 95 3d
       0.3769426 0.18248054 0.11234566 0.07310617
0001f0 b7 36 9c 3e e3 67 02 be e7 bd 83 3d 0f 2e 09 3e
       0.30510494 -0.12734942 0.064327054 0.13396476
000200 80 27 09 3e 8b cf 5a 3e d6 e9 17 3d 32 0b d8 3d
       0.13393974 0.21368234 0.037088238 0.1054901
000210 87 6a 30 3e a0 f9 71 3e 9b 33 31 3e 31 e5 09 3e
       0.17228137 0.2363038 0.17304842 0.13466336
000220 d8 e1 80 3e ec 15 07 3e ce fc 75 3e 9d 53 57 3e
       0.25172305 0.13191956 0.24022219 0.2102799
000230 75 15 86 3d 93 81 19 3e 82 e8 82 3e 0a 0e 4b 3e
       0.06547061 0.14990835 0.25568014 0.19829574
000240 1b e1 18 3e 04 4e cb bd 78 15 e6 3c 64 f7 56 3d
       0.14929621 -0.0992699 0.028086409 0.052482024
000250 03 56 be 3d b2 a2 48 3e e7 41 8e 3d c3 90 59 3c
       0.09293749 0.19593313 0.069461636 0.013279143
000260 88 ef c7 bd 53 c1 b2 bd 6c 43 57 bc fc 74 be 3c
       -0.09762484 -0.0872828 -0.013138633 0.023249142
000270 55 02 0f 3d 7b 4b 01 3d 37 05 ca bc a9 65 e7 bc
       0.034914333 0.031566124 -0.02466069 -0.028246718
000280 09 b3 ac bb cb 90 ad b9 0d 08 ca 3c f3 e5 bf b9
       -0.005270366 -0.0003310501 0.024662042 -0.00036601684
000290 c4 c5 1b bc dd 08 9b 3d a3 b0 81 3d de 3a 05 3d
       -0.0095076 0.0757005 0.06332519 0.032526843
0002a0 c3 55 d3 bc 71 13 b0 bc 96 70 39 3e a6 87 d0 3d
       -0.02579773 -0.021493645 0.18109354 0.10182123
0002b0 fc 6d ed 3d 88 46 92 3d 68 34 6d 3d a7 69 da 3b
       0.115932435 0.07142359 0.057911307 0.006665427
0002c0 18 1d 07 bc 16 5a 73 3d 38 ef 13 3d e5 45 73 bd
       -0.008246683 0.059412085 0.03611681 -0.05939283
0002d0 18 46 70 bd 34 0a 7e 3d b6 7c 69 3d 08 f8 65 bc
       -0.058660597 0.06202145 0.0570037 -0.014036186
0002e0 1e 38 50 3d 6e 94 35 bb 12 fc 46 3d 2a dd 30 bd
       0.050834768 -0.002770688 0.048580237 -0.04317967
0002f0 ac 5b b9 3c 95 b0 0a bd ec b0 e0 3c 12 60 7c 3d
       0.02262672 -0.033859808 0.027428113 0.061615057
000300 b2 00 c6 3b e0 4e 49 bd 34 7b 11 3d e8 1a 54 bd
       0.0060425634 -0.049147487 0.035517886 -0.051783472
000310 5c 4b 84 bc 04 76 f1 bc ac 3a 00 3d 40 5d 3f bd
       -0.016149215 -0.02947522 0.031305954 -0.04671979
000320 2e 8b 8a 3d 58 6a 8a bc 4f c6 c7 3d e4 6b d5 3d
       0.06764828 -0.016896412 0.09754621 0.10420969
000330 7d 6b 3d bd d6 d4 21 3d 71 41 b0 3d fd 6e 93 3d
       -0.046245087 0.039509617 0.08606232 0.07198904
000340 33 b0 a3 bc 8f 27 4d bd 67 86 f3 3c 30 3a 5d 3d
       -0.01998148 -0.050086554 0.029727174 0.05401057
000350 91 b2 ef bb e0 77 a7 3d 8a 13 83 3d 15 72 d6 bc
       -0.007314988 0.08177161 0.06400211 -0.026177445
000360 56 b0 2d bd 6b d3 91 3d 6b b9 3a bd e7 49 ca 3b
       -0.042404495 0.07120403 -0.045586985 0.0061733606
000370 d1 0a e5 3c e4 bd b6 3d b7 95 63 3d fc 49 95 bb
       0.02795926 0.089229375 0.0555627 -0.0045559388
000380 6a 88 17 3c e5 e4 1e 3e c2 49 37 3e 9c 39 95 3d
       0.009248832 0.15517004 0.1789923 0.07286379
000390 62 01 55 bb 06 69 53 bd f4 65 eb bc fb d6 ca 3d
       -0.0032502045 -0.05161383 -0.028735138 0.099042855
0003a0 11 b6 36 3e 1c 36 f6 3d 9b e9 7c 3b 85 07 1d 3e
       0.1784289 0.12022039 0.0038591388 0.153349
0003b0 48 e2 e3 3d 5e 21 c0 3d 38 1a 02 3e ef 25 c4 bd
       0.11127144 0.09381364 0.12705314 -0.09577548
0003c0 92 58 10 3e 66 59 8e 3d 4e 7a bc 3d 04 3a 82 3d
       0.14096287 0.06950645 0.09203015 0.06358722
0003d0 43 0d 47 3d c9 a5 41 3e c9 a0 07 3e 91 ab 13 3e
       0.04859663 0.18910898 0.13244928 0.14420916
0003e0 88 bd d3 3d b4 e7 92 3d 37 c3 9b bd 97 b2 6d be
       0.103388846 0.071731 -0.07605594 -0.23212658
0003f0 1b 93 28 be 4e d5 ce bd 38 32 da 3d da b0 77 3d
       -0.16462366 -0.100992784 0.1065411 0.060471393

conv2.bias f4 [20]
000000 b5 94 12 bd 0a cb 58 3e ef ac 4f 3e 25 26 ba 3b
       -0.03578635 0.21171203 0.20280813 0.0056808167
000010 45 55 17 be 6d a0 7d bd 33 10 60 be 0b 37 52 3d
       -0.14778621 -0.061920572 -0.2188118 0.051322024
000020 85 75 6d 3e 1e bf 93 bd ed 8c 11 be 1c 13 9e bd
       0.23189361 -0.07214187 -0.14213915 -0.077184886
000030 44 11 8a bd 1a 27 35 3a 78 98 bc bd b2 7b 1b bc
       -0.067415744 0.00069104286 -0.092087686 -0.0094899405
000040 3b 63 36 bc 0a b8 50 3d 53 4e 15 bd d8 39 af 3c
       -0.011132057 0.050956763 -0.03645165 0.021389887

fc1.weight f4 [2, 320]
000000 01 8b e8 bd 42 54 4c 3c 05 65 8c bd 7d 88 17 be
       -0.11354638 0.0124712605 -0.068552054 -0.1479816
000010 5a eb 28 be cf d3 99 bd 03 ea 84 bd 2a eb 94 bd
       -0.1649603 -0.075111024 -0.06489947 -0.072714165
000020 30 33 a2 bd 28 ee a5 bc 1d aa a3 bd 1f 79 8c bd
       -0.079199195 -0.020255163 -0.07991431 -0.068590395
000030 5e 91 65 be 34 84 0c be 49 89 31 bd e2 71 08 be
       -0.22418734 -0.13722306 -0.043343816 -0.13324693
000040 5f 04 9e 3e ee b7 7f 3e c0 c3 05 3e 30 2b af 3e
       0.3086271 0.24972507 0.13062954 0.34212637
000050 0e f1 29 3e fd 73 17 3e 1d 23 47 3d 8c 0c 81 3e
       0.16595861 0.1479034 0.04861747 0.25204885
000060 8e b6 5f 3e 3f 3e 4c 3e c0 c1 97 3c 43 a0 6a 3e
       0.21846983 0.1994562 0.018525004 0.22912697
000070 52 7d e3 3e 6c 9b a3 3e cb f2 96 3d 7d 15 a1 3e
       0.4443155 0.31954515 0.07370528 0.31461707
000080 ba 3d a5 3e ee a1 8e 3e 37 ae 67 3e 1f 40 06 3f
       0.32273656 0.27857918 0.22625051 0.5244159
000090 7d a5 98 3e 5b 9e 09 3e ec 49 5c bc 03 de 8a 3e
       0.29813758 0.13439314 -0.013445359 0.27122506
0000a0 34 09 92 3e 65 38 ce 3d c2 25 63 3d e6 98 bf 3e
       0.28522646 0.1006935 0.05545593 0.3742134
0000b0 95 ca cf 3e e1 a9 b5 3e 2d bc d8 3e 01 7f 2b 3f
       0.40584245 0.3548117 0.42331067 0.6699067
0000c0 ea ed 9d 3d cc 92 a2 3c ed 62 95 bd f9 ce 6c be
       0.07711394 0.019845389 -0.07294259 -0.23125829
0000d0 62 41 9c 3c 9d a8 1f 3d 55 de 8a bc c3 21 46 be
       0.019074146 0.03897916 -0.01695172 -0.19348817
0000e0 30 4d 23 3e f5 28 8a 3d f1 a9 39 bd d4 d1 af bd
       0.15947413 0.06746093 -0.045328084 -0.085849434
0000f0 34 8b 06 3b 2f b7 24 bc 4a 3d e0 bd 03 f3 15 be
       0.002052975 -0.01005344 -0.1094919 -0.14643483
000100 74 14 a0 3e ce 64 5f 3e 82 8f 74 3e 5b 58 80 3c
       0.31265604 0.21815798 0.23882869 0.015667131
000110 23 60 59 3e 68 1b e5 3d 1c 9e 1d 3d 31 e5 00 bd
       0.2122808 0.11186868 0.038480863 -0.031468574
000120 c7 fc 6d bd 1a 5a 06 b8 3c d1 03 bd 38 ee 4c be
       -0.058102395 -3.2032003e-05 -0.032181963 -0.20012748
000130 80 3a 9c be 7a e4 08 be 16 7e 71 be 71 c2 9a be
       -0.30513382 -0.13368407 -0.23583254 -0.30226472
000140 72 59 d9 3d 72 b5 83 3c 04 ec 93 bd 7f c2 44 3d
       0.106127635 0.01607773 -0.07222751 0.04803705
000150 18 77 12 3d 21 e1 8d bd 82 b9 d1 3b 47 c7 b5 3c
       0.035758108 -0.069277056 0.006400288 0.02218975
000160 44 5b ed 3d 81 68 2e 3d 5b bb 0a 3e 26 9c 9a 3c
       0.11589673 0.04258013 0.13548033 0.018873286
000170 1e 11 84 3d 15 83 0d 3e b7 f9 92 3d 44 4c 92 3d
       0.06448577 0.13819535 0.071765356 0.07143453
000180 9c 89 8f 3e af cf da 3e e8 c1 b4 3e f7 5b 03 3f
       0.28034675 0.42736575 0.3530419 0.513122
000190 d8 d5 71 3e c7 23 9a 3e 4f cb 9e 3e 70 73 e0 3e
       0.23616731 0.3010542 0.31014487 0.43838072
0001a0 3f f1 6f 3e 42 87 1a 3e ae 61 a9 3d cf 91 a9 3e
       0.23431872 0.1509066 0.08270584 0.33119056
0001b0 e0 6a cc 3e d2 e8 c9 3e ec 28 99 3e a3 bb 01 3f
       0.3992529 0.3943544 0.29914033 0.50676936
0001c0 78 40 09 be 6f ad 17 be 56 b7 54 be 33 83 91 be
       -0.13403499 -0.14812253 -0.20773062 -0.2842041
0001d0 28 8a 90 bd ce d4 e8 bd 6c f3 b2 bc b5 39 1d be
       -0.07057601 -0.11368714 -0.021844588 -0.15354045
0001e0 5c 9f 46 bd 9a 2a a6 bd 1d 84 eb bd 7b 2b 81 bd
       -0.04849182 -0.08113594 -0.11499808 -0.06307121
0001f0 42 6d 8d bd 65 dd a2 bc e7 d9 2b 3c 75 24 02 be
       -0.06905605 -0.01988096 0.010488964 -0.1270922
000200 d6 ce 1f 3f 48 6e 16 3f 13 5d c8 3e a1 31 03 3f
       0.6242498 0.58762026 0.3913351 0.512476
000210 c5 f3 90 3e 28 b7 80 3e 8b 50 7f 3e c5 55 ec 3e
       0.2831098 0.25139737 0.24933068 0.46159187
000220 c2 9c 81 3e 6c 6c 62 3e f6 a0 24 3e 89 4a ec 3e
       0.2531491 0.22111672 0.16077027 0.46150616
000230 dc 14 09 3f 2d 6e c0 3e 1b e5 90 3e 8d d8 f5 3e
       0.53547454 0.37584057 0.28299794 0.48016778
000240 c3 aa 17 bd dd 44 11 3c 30 c1 2d 3c 12 af 0c bd
       -0.037028085 0.008866516 0.0106051415 -0.034346648
000250 ff 78 c5 3c d5 b5 66 bc 35 f1 93 3b 1d d6 30 3b
       0.024105547 -0.014081438 0.004514838 0.002698309
000260 7a aa d9 bc dd 5a 1e bd 5f c5 dc 3c 40 46 01 3b
       -0.026570547 -0.038660873 0.026949583 0.001972571
000270 04 8c 08 bb 85 46 0e bd 53 e3 18 bc 92 01 dc 3c
       -0.002083541 -0.03473522 -0.009331542 0.026856218
000280 27 18 db 3e 75 6a bd 3e f1 1c b5 3e 5e b6 61 3e
       0.42791864 0.36995283 0.35373643 0.22042224
000290 df 02 b5 3e fb 1b 9e 3e ca c1 86 3e f1 42 90 3e
       0.35353753 0.30880722 0.26319724 0.28176072
0002a0 67 73 c3 3e 70 0e 43 3e 9c 5e 82 3e ca 0f 87 3e
       0.38173983 0.19048476 0.25462806 0.26379234
0002b0 32 47 ea 3e 7c 1d 78 3e 14 3b 90 3e 40 b9 77 3e
       0.45757443 0.24229997 0.28170073 0.24191761
0002c0 44 db 13 bd 96 57 14 3d 73 4c e7 bc 10 35 af bb
       -0.03609778 0.03621634 -0.028234696 -0.0053469017
0002d0 10 09 4d 3d 92 08 a2 bc 5a ef 4e 3d 37 5f 24 bd
       0.05005747 -0.019779477 0.050521232 -0.040129866
0002e0 f0 08 0b bd 84 91 4f 3d ff a1 34 bd 52 c0 24 bd
       -0.03394407 0.050675884 -0.044099804 -0.040222473
0002f0 c0 7f 4a 3d b0 d2 1d 3c b0 20 45 3c 92 59 15 3d
       0.04943824 0.009632751 0.012031719 0.036462374
000300 72 13 c3 bc 00 50 4a bd 20 c0 98 3c 48 09 d6 bc
       -0.023812983 -0.0493927 0.0186463 -0.026127473
000310 6a 63 5b 3d d1 75 5a 3c 38 08 75 bc f2 eb 49 bd
       0.053561606 0.013333754 -0.014955573 -0.04929728
000320 40 2a 8f 3a 7f ea 41 bd b2 14 0e 3d 65 c7 3b bd
       0.0010922626 -0.047342774 0.034687705 -0.045844454
000330 9a e7 62 bd d8 9f 28 bc 02 9e 2e 3d 6a 06 32 3d
       -0.055396654 -0.010292016 0.042631157 0.04346315
000340 17 44 88 be 57 43 f1 bd ec 77 b9 bd 48 b9 96 bd
       -0.26614448 -0.11780422 -0.090560764 -0.07359558
000350 e4 55 18 be 0a 83 b7 bc 6e 5e 59 bb d4 3c fe 3c
       -0.14876515 -0.022401351 -0.0033167857 0.031034864
000360 33 e3 05 be 1f e6 8a bd 89 bd 13 bc ba 77 57 3d
       -0.13074951 -0.06782173 -0.009017357 0.052604415
000370 07 3d 16 be 45 b8 3a 3d df 07 54 3d e8 88 2b 3d
       -0.14671718 0.04558589 0.05176532 0.04187861
000380 b2 64 95 3e ce fa 78 3e 1c 08 42 3e f3 35 cc 3e
       0.29178387 0.24314424 0.18948406 0.3988491
000390 98 08 78 3e 78 61 1f 3e a7 68 1c 3e 03 67 a4 3d
       0.24222028 0.15564525 0.15274297 0.080274604
0003a0 8f 17 cc 3e 45 04 84 3e 84 f7 6f 3e 7c c2 4c 3e
       0.39861724 0.25784507 0.23434263 0.19996065
0003b0 e4 70 e5 3e 0e c6 92 3e e1 27 a9 3e ad c9 80 3e
       0.4481269 0.2866673 0.33038238 0.25153866
0003c0 b6 5b 44 be b7 b8 d0 bc 10 f0 db bd 21 fa d5 bd
       -0.1917561 -0.025478704 -0.10739148 -0.10448099
0003d0 6e 9e 08 bd a9 8f 81 bd 69 93 11 bd e9 91 70 bc
       -0.033354215 -0.06326229 -0.035540972 -0.014683225
0003e0 b7 23 aa bc 8d 92 a4 3d 10 77 71 3d fd 08 d3 3d
       -0.020768983 0.08035765 0.058951437 0.10304449
0003f0 5e 0b 94 be 5c a5 67 bd 42 19 21 bd 45 5f 6d 3d
       -0.28914922 -0.056554183 -0.03933073 0.057952184

fc1.bias f4 [2]
000000 99 9f 5e bc 2a 76 1b 3d
       -0.013587856 0.037954487
